model.tflite (tflite, 56240 bytes, 7 tensors)

sequential/dense_1/BiasAdd/ReadVariableOp f4 [32]
000000 4a 6a 16 39 73 0a cf bb 3f bb 84 bb c6 d2 60 3c
       0.0001434471 -0.0063183843 -0.004050642 0.013722127
000010 fb df f3 3a 78 08 16 bc a9 c4 60 3c e1 fb f9 bb
       0.001860618 -0.009157293 0.013718762 -0.0076289033
000020 ce dd 83 3c ae af 55 bc 1a fe 18 bb 02 e1 09 bc
       0.016096976 -0.013042374 -0.0023344816 -0.008415462
000030 b0 71 12 bb 59 a5 7e ba 42 1c 33 bb ff c5 a2 bb
       -0.0022345595 -0.000971397 -0.0027330075 -0.0049674506
000040 73 69 9a 3c ec d1 01 3c d2 9d a6 bb 96 09 dd bb
       0.01884911 0.007923584 -0.0050847316 -0.0067455275
000050 93 3b 2b bc 7e 51 00 3b 81 38 a6 3b 34 0f 5f bc
       -0.010451215 0.0019579823 0.0050726538 -0.013614465
000060 9e fb 27 bc d4 15 c3 bb 42 51 60 bc fb 78 85 3c
       -0.010252861 -0.00595353 -0.013691248 0.01629304
000070 05 0e 8e bc 31 5f 03 3a 70 27 24 bc 82 c5 2d bc
       -0.01734067 0.0005011438 -0.010019168 -0.010606172

sequential/dense_2/BiasAdd/ReadVariableOp f4 [8]
000000 91 6a 2d 3c 0e 24 b1 3b 49 de a0 bb 49 f8 c5 3b
       0.010584489 0.0054059094 -0.004909311 0.006041561
000010 ce d4 7b 3a d7 a9 02 bd 04 25 40 bc bc 4f bc bb
       0.00096066005 -0.031900253 -0.011727575 -0.0057468098

sequential/dense/BiasAdd/ReadVariableOp f4 [128]
000000 54 11 c7 3a 10 41 5b 3b 4c 6e a7 bc d1 2d 79 3c
       0.0015187659 0.0033455528 -0.020438336 0.015208677
000010 7a f4 97 bc b8 96 85 bc c7 90 b1 bc 9f 90 31 bc
       -0.018549193 -0.01630722 -0.02167548 -0.010837703
000020 eb ee 9d 3c 2c 15 82 bb 84 76 c2 bc 6e 6f 57 3c
       0.019278964 -0.003969809 -0.023738153 0.0131491255
000030 ea a9 c7 bb 7d 07 f2 3b 42 fd 9d 3c ec 1b 50 bc
       -0.0060932534 0.0073861466 0.019285802 -0.01270197
000040 b8 75 4c 3c 82 b3 c5 bc f2 3c 09 bc 82 8e e3 bb
       0.012479238 -0.024133448 -0.008376347 -0.0069444785
000050 aa 0a ae bc 7a 16 91 bc 74 e8 95 3b 77 ab 70 bc
       -0.02124532 -0.017710913 0.0045748297 -0.014689318
000060 fe 8b c6 bb fe 8e ee bc e4 ac 7c 3c 37 6c d7 bc
       -0.006059169 -0.029120918 0.01542208 -0.026296718
000070 7f cd 14 3d a1 e4 91 3c 1f 0b 8e 3c 7f e6 b9 bc
       0.03632879 0.017809214 0.017339287 -0.022692917
000080 0f 91 61 bc 95 16 e4 bc d9 19 09 bc 66 53 c2 3c
       -0.013767495 -0.0278428 -0.008367979 0.023721408
000090 99 34 16 bc 4e 56 e3 3b c8 9c 8e bc 99 5f b0 3b
       -0.009167814 0.0069377786 -0.017408744 0.00538249
0000a0 6c 17 e9 3c 63 f7 ec 3c f3 37 39 bb e2 a5 8a bc
       0.028453551 0.028926557 -0.0028262108 -0.016924802
0000b0 41 75 d3 ba 1f 9e b7 3a 46 be 2b 3d f8 38 3f 3c
       -0.0016132967 0.0014008916 0.041929506 0.011671297
0000c0 8c 71 8e bc 71 98 d5 bc 21 f8 45 bd 9d c7 39 b8
       -0.017388128 -0.026073666 -0.048332337 -4.429334e-05
0000d0 c6 7d 32 bc 99 1b 59 bc cd e6 f2 3c 95 1f a1 bc
       -0.010894245 -0.013251209 0.02965107 -0.01966838
0000e0 7c d7 d8 bb 28 ba a3 3b 94 21 a1 3b d1 25 ce bc
       -0.0066174846 0.004996557 0.004917333 -0.025164517
0000f0 cc 1b 07 bb a3 88 ee 3b 66 b5 a4 3c 65 0f 3d bc
       -0.0020615933 0.007279472 0.020106029 -0.011539315
000100 3c 7c 3d 3c a1 87 e9 3c 18 73 16 3c 2e 7b 58 3c
       0.011565264 0.028507056 0.009182714 0.013212962
000110 bc 5d ab bc c7 b4 1a 3c a2 e3 6d 3c 30 fb f6 3b
       -0.02091872 0.009442515 0.014519604 0.007537268
000120 3f 37 cf ba 4e 05 99 ba bb fa f9 3b d0 12 81 bc
       -0.0015809311 -0.0011674555 0.0076287664 -0.01575604
000130 a8 b4 b7 bc 8f 3a a8 bc 16 70 ce bc d4 1c 1a 3d
       -0.02242501 -0.020535735 -0.025199931 0.03762515
000140 cb e4 a6 ba b0 09 1e 3c ea e1 46 39 c5 d7 f6 3c
       -0.001273298 0.009645864 0.00018966911 0.030132184
000150 58 db 82 3c 68 a1 51 bc 69 00 a6 bc 97 84 df 3b
       0.015973732 -0.01279483 -0.020263867 0.006821226
000160 4b c8 d8 bb 5b 68 01 bb 63 74 02 bb c6 5a d0 bc
       -0.0066156737 -0.0019746039 -0.0019905798 -0.02543391
000170 14 65 1c bc 93 78 09 bd d2 86 8d bb ad 74 87 3c
       -0.009545583 -0.033562254 -0.0043190503 0.016535128
000180 6e e2 ed 3c a8 52 90 bc a2 46 f5 bb e2 2c b4 3a
       0.029038634 -0.017617539 -0.0074852267 0.0013746286
000190 89 ea c8 bb 05 aa 2d bd cf bd 9d 3c 0a 52 f9 3b
       -0.0061314744 -0.04239847 0.019255547 0.007608657
0001a0 72 40 64 3c 42 56 1d 3d d1 e6 83 3b 69 41 56 3c
       0.013931381 0.03841234 0.004025318 0.013077118
0001b0 b1 1e d4 ba 51 07 96 3c 4c d4 e5 3c 9a 8c 89 3c
       -0.0016183463 0.018314036 0.028055333 0.016790677
0001c0 35 83 3d bc 59 58 c2 bb 3a b3 29 bc 8c 75 27 bc
       -0.011566927 -0.005930942 -0.010357672 -0.010220896
0001d0 5f 51 bb bc 02 98 47 3c d3 75 b9 3c 20 91 8e bb
       -0.02286595 0.012182238 0.02263919 -0.0043507963
0001e0 9e 97 8d bc 04 a0 90 bb c6 0e 85 bc 85 18 f0 3b
       -0.01728421 -0.0044136066 -0.016242396 0.0073271417
0001f0 3d 02 31 bc cf 7f f9 bb 6c 9b 03 bc cb ef 6f 3b
       -0.010803756 -0.007614113 -0.008032661 0.0036611434

sequential/dense/MatMul f4 [128, 69]
000000 ea be 9c 3d da bf 49 bd 86 09 03 3e bc fe 5c be
       0.076536015 -0.04925523 0.12796602 -0.21581548
000010 6c d6 57 3e 51 e6 4f bd d6 45 82 3d f0 92 f8 bd
       0.21077889 -0.050756756 0.063609764 -0.12137401
000020 14 05 ea 3d ab e9 28 3e 84 90 d4 bd e6 d2 41 be
       0.1142675 0.16495387 -0.10379127 -0.18928108
000030 75 f9 a7 bd b1 8a 1d bd 48 20 cf 3d 23 1c 18 bd
       -0.08201877 -0.038462345 0.10113579 -0.03713621
000040 0b 86 bd 3b af d7 12 3d d5 c5 4e bd e3 54 26 3e
       0.0057838014 0.035850223 -0.050481636 0.16243319
000050 7c 9f 34 3a 3e 4e f9 3d a8 65 18 be 75 ec d6 bd
       0.000689022 0.12173127 -0.14882529 -0.10494319
000060 8d e6 8c 3d 3e 19 73 bd 16 cd 39 38 c7 0b 1f be
       0.068799116 -0.059350245 4.429844e-05 -0.15531836
000070 e1 21 bb bd 85 72 10 be 56 d7 37 3e 5b d7 17 bd
       -0.09137321 -0.14106186 0.17953238 -0.037070613
000080 40 98 d9 3c fb ed cb bd 79 c5 e7 3d d6 55 9a 3d
       0.026561856 -0.099575005 0.11316962 0.07535903
000090 a5 16 76 3d 61 fc 03 3e 4e 63 e7 3d 4e 15 09 be
       0.06008019 0.12889244 0.11298238 -0.13387033
0000a0 3c e5 f5 bd eb cf 01 be 4b 1b 94 bc b0 59 81 bb
       -0.120066136 -0.1267697 -0.01807942 -0.003947459
0000b0 80 12 33 be 7f 16 6b 3d e7 db 7e bc 6a e8 7e 3d
       -0.17487526 0.0573945 -0.0155553585 0.062233366
0000c0 61 93 cb 3d 21 03 ed bd 2b f0 b6 bd 02 af 47 bd
       0.0994022 -0.115728624 -0.08932527 -0.048750885
0000d0 c0 f9 87 3d c7 6e 6d bc 4e fb 05 be 6b 85 80 3c
       0.06639433 -0.014491743 -0.13084146 0.015688619
0000e0 5b bc 04 3e c5 69 f2 3d 83 c7 1e 3e d2 ab 0d 3e
       0.12962477 0.1183658 0.15505795 0.13835075
0000f0 bd aa 1b be 18 0b ed 3d b9 8e 61 3c c6 84 e4 3b
       -0.1520185 0.115743816 0.013766938 0.0069738356
000100 20 0f 11 bd da 4f b8 3c 09 e9 3b be 29 e1 68 bd
       -0.035414815 0.022499014 -0.18350615 -0.056855354
000110 7a 05 c7 3d 22 3d 1e bc e0 70 02 3e 04 f6 4e 3d
       0.097178414 -0.00965813 0.12738371 0.050527588
000120 6d f3 67 be f4 99 31 3e f7 42 6e 3d b1 17 17 3e
       -0.22651453 0.17343885 0.05816933 0.14755131
000130 61 8c a0 bd 67 1e c2 3d 98 e1 a7 3c 87 2e 91 be
       -0.07839275 0.09478455 0.020493314 -0.2835581
000140 d7 04 77 bc c7 fc ed bd 1e 76 1f be 74 4b 0d bd
       -0.0150768375 -0.11620479 -0.15572402 -0.034495786
000150 46 bb 8b be 19 53 fd bc bb c5 58 be 11 05 38 bd
       -0.27291316 -0.030923413 -0.21169178 -0.044926707
000160 81 cf 92 bd 25 40 fa 3d 63 81 64 3e 7d ec 1e be
       -0.071684845 0.12219266 0.22314982 -0.155199
000170 81 72 8b bc 77 a9 5f bc 01 a4 f5 bd e1 1a 63 3d
       -0.017022373 -0.013651243 -0.11994172 0.055445556
000180 4b c2 8e bd 85 18 b3 bc 47 b9 b3 3c b4 fd 45 3d
       -0.06970652 -0.021862278 0.021938933 0.048337653
000190 7e 2f 0f be 53 30 d2 3c f9 39 82 bd d6 de 67 3d
       -0.1398296 0.025657808 -0.06358714 0.056608997
0001a0 a8 c9 b2 3d 82 1c 32 3e 84 39 83 3d 4c 24 21 3e
       0.08729869 0.17393687 0.064074546 0.15736502
0001b0 da 41 50 be 6a ab 49 3d 39 b7 c1 3d 45 81 3d 3e
       -0.2033762 0.04923574 0.09458775 0.18506344
0001c0 35 26 16 3d 9b 21 30 bc 96 9e 2b be 8a f7 13 3e
       0.03665753 -0.0107502 -0.16759714 0.14449897
0001d0 83 c5 f8 3d c8 f6 72 3c c7 8e 1f bd 04 51 56 bd
       0.12147047 0.014829345 -0.038954522 -0.052323356
0001e0 32 e7 a1 bc ad 8e 01 bd 6a 2c 00 3e 37 cb 08 3d
       -0.019763563 -0.031630207 0.12516943 0.033396926
0001f0 f5 92 b8 3d 0b df f4 3c fe 8b 81 bd f1 38 29 3e
       0.09012405 0.029891511 -0.063255295 0.16525628
000200 87 b2 6f 3d 05 c0 02 be 05 61 e5 bd cd 50 2e be
       0.058519866 -0.12768562 -0.11200146 -0.1702301
000210 87 0e 14 3e 1a 00 f5 ba de 71 2a be 6c c5 91 bd
       0.14458667 -0.0018692047 -0.16645 -0.07117733
000220 1c df fa 3d 1c b4 1a 3e af 7e c8 3d 60 b4 1f 3d
       0.12249586 0.15107769 0.09789788 0.03899038
000230 db e4 34 be fe 86 5a be d7 c3 ff bb 45 08 37 3e
       -0.17665426 -0.21340558 -0.0078053284 0.17874248
000240 60 28 41 3e 34 8c cd 3d d3 37 26 3e 17 f1 e6 3d
       0.18863058 0.10036507 0.16232233 0.11276453
000250 76 41 06 be 35 72 10 3e 00 31 3e 3e c8 c2 9c be
       -0.13110909 0.14106067 0.1857338 -0.30617356
000260 8b 99 86 bd 86 ff e2 bd 4f 03 5d bd c6 15 fb 3c
       -0.06572255 -0.110838935 -0.053958233 0.03065003
000270 a4 b1 c7 3d 03 34 1f 3d 11 5f 2d 3d df 70 08 be
       0.09750679 0.03886796 0.04232699 -0.13324307
000280 e3 00 95 3d 27 97 d5 bd 65 7f 28 3d 3d 73 09 bd
       0.0727556 -0.10429221 0.041137118 -0.033557165
000290 23 bc 21 be 41 d9 cf 3c d3 aa 33 be a9 39 bb bd
       -0.15794425 0.02537215 -0.17545633 -0.09141857
0002a0 b9 6a 00 3e 5e 28 e2 bd c0 19 0b 3e 06 24 b4 bd
       0.12540711 -0.11042856 0.13584042 -0.087959334
0002b0 92 4b 50 3d 9b 83 be 3d c0 24 9a 3d 30 7f 9a 3c
       0.05085332 0.093024455 0.07526541 0.018859476
0002c0 b4 68 ee 3d e0 4a 10 3e 23 fc 54 bd 35 a0 bf bd
       0.11641064 0.14091063 -0.05199827 -0.09356729
0002d0 67 b1 be bc 71 a1 c2 bd 4f 2e 07 3e ae d7 ab 3c
       -0.023277951 -0.09503449 0.13201259 0.020976868
0002e0 ea ee c9 3c 1d b2 03 bc 93 fb 17 3e 1f 20 8f 3d
       0.024650056 -0.008038071 0.14842062 0.069885485
0002f0 6f 61 2e be f5 99 43 be 85 4a b7 bd fc c4 df bd
       -0.17029355 -0.19101699 -0.0894976 -0.10926244
000300 88 f0 70 3e 7b 77 91 3d c1 f0 5e bc c5 a9 06 3e
       0.23529255 0.07102867 -0.013607205 0.131507
000310 b6 c9 ca 3d a0 db 5f 3e 30 a3 8f 3d 74 7d 18 3d
       0.099017546 0.21861124 0.070135474 0.037229016
000320 69 39 1c 3e 8e 15 75 3a 4c f8 93 bc 2c e1 a7 bb
       0.15256275 0.000934922 -0.018062733 -0.005123278
000330 94 3c ea bd 1b 71 65 3e 70 5c f0 3d f9 4a a6 3d
       -0.114373356 0.22406428 0.11736381 0.08119769
000340 69 bb f0 3d dd bd 82 3d 69 c8 a1 be f4 9d 11 3e
       0.11754496 0.0638387 -0.31598213 0.1422041
000350 11 8a 93 3d 59 fd d6 3d da 7c 05 3d 97 95 82 3e
       0.072040685 0.10497541 0.03258977 0.25504753
000360 25 f7 c1 bc c2 b3 a7 be f5 1d 0d 3e 8e 7e 0e 3e
       -0.023677418 -0.32754332 0.13780959 0.13915464
000370 bf f6 c8 be 08 a4 f7 3d 29 ed 05 be 23 8a 18 3e
       -0.39250752 0.12091833 -0.1307875 0.14896445
000380 34 6d 1f be fe f7 14 3e 25 2e 2d 3d 23 39 03 3c
       -0.15569001 0.14547727 0.042280335 0.008009228
000390 06 92 0e 3e a2 e6 3e 3c 16 ab 5a 3d fb 49 1f bd
       0.13922891 0.011651667 0.053385817 -0.038888913
0003a0 9a 08 2d 3e d0 5e 6d 3e c9 ac 81 be 19 4b e3 bd
       0.16897812 0.231807 -0.25327137 -0.11098308
0003b0 35 3a 1a 3e ce 25 79 3d 8d 18 12 be 3a 5b 05 be
       0.15061267 0.06082707 -0.14267178 -0.13023081
0003c0 d4 f3 70 3d 14 7c 17 3e 49 8a af ba b0 76 b5 bd
       0.058826283 0.14793426 -0.0013392653 -0.088605285
0003d0 1a d4 ad bd 31 d4 05 3d dd ff 62 3d 74 d0 04 be
       -0.08487721 0.032673065 0.05541979 -0.12970144
0003e0 08 bf 63 bd 12 a6 4a 3e 44 61 f0 bd 42 93 42 3d
       -0.055602103 0.19789913 -0.11737302 0.047503717
0003f0 13 b2 1b be c6 a1 94 3d 0e e7 06 be a3 a5 1f be
       -0.15204649 0.07257418 -0.13174078 -0.15590529

sequential/dense_1/MatMul f4 [32, 128]
000000 d9 4e 22 3d a9 c8 09 3e 4b 14 0f be 66 41 4b bd
       0.039625976 0.13455452 -0.13972585 -0.049622916
000010 44 ab 96 3c e2 13 97 3d 05 19 10 3d fa cc 2f be
       0.018392213 0.07376839 0.03518011 -0.17168036
000020 85 ba 8c 3b 0f 0f 36 bd 50 4f 69 3d 3b fb 06 be
       0.004294696 -0.044447955 0.056960404 -0.13181774
000030 21 cc 08 3e 4a 32 62 be 07 1b ed 3d db db bc 3d
       0.13359119 -0.22089496 0.11577421 0.092216216
000040 f4 30 ac bd 49 ab 4f 3e 1c eb c7 3d 5e 74 c8 3d
       -0.084077746 0.20280184 0.097616404 0.0978782
000050 31 d6 10 3e 8c 28 7c 3d ad ef 1f be d4 b4 a0 39
       0.14144208 0.061562106 -0.15618773 0.00030652306
000060 a5 ed a8 3d 87 73 27 3e 14 f5 33 3e e1 33 b6 bd
       0.08248452 0.16352664 0.17573959 -0.08896614
000070 86 58 c9 3d 51 aa 34 be ed f9 23 3e b1 96 53 3d
       0.09831338 -0.17643096 0.16013308 0.051657382
000080 e9 6b 7e bc 0f cf 6d 3e b5 e9 41 3d fd 95 05 be
       -0.0155286575 0.23223518 0.04734202 -0.13045497
000090 7e d0 26 be c3 49 4f 3e 08 a0 be bd 2c 80 cf 3c
       -0.16290471 0.20242982 -0.09307867 0.025329672
0000a0 dd be 55 3d 30 86 cd 3d 9b 4f 85 be e5 c6 b4 3d
       0.052183975 0.1003536 -0.26037297 0.088269986
0000b0 57 78 94 3d 74 88 99 3d 94 18 2c be 19 f9 04 3c
       0.072495155 0.074967295 -0.16806251 0.00811603
0000c0 76 9c d6 bd 07 fa 05 be ea 6a 23 be 64 99 18 be
       -0.10479061 -0.13083659 -0.15958753 -0.14902264
0000d0 51 6b 08 bd 0e de c8 bd 1d 00 44 be 1d 26 14 3d
       -0.03330547 -0.098079786 -0.19140668 0.03616916
0000e0 32 c3 50 be 59 3a 34 3e 7a b5 67 bd 19 4b d8 3c
       -0.20386961 0.17600383 -0.056569554 0.026402997
0000f0 25 9d 47 be 1b 32 9e bc c2 84 56 3d 94 7e 18 3e
       -0.1949354 -0.019311002 0.0523727 0.14892036
000100 51 fc ce bd bb 80 e3 3d 10 e3 2f bd 50 22 10 3e
       -0.10106719 0.11108538 -0.042941153 0.14075589
000110 a2 73 e0 bd 17 c7 e8 3d 88 64 e4 bb 3c f7 09 3e
       -0.10959555 0.113660984 -0.006969992 0.13473219
000120 ea 79 c4 3c bd 30 65 3e fc a5 5a 3e cc 90 c8 bd
       0.023983914 0.22381873 0.2135238 -0.09793243
000130 20 4c 66 3b 33 cc cd bd 3c 9a 51 3d 6b c7 d5 bd
       0.003514059 -0.100487135 0.05117248 -0.104384266
000140 85 6f 0a be 02 cd e2 3d 8c 4b f6 3d 0b cd ee bd
       -0.13519104 0.110742584 0.12026128 -0.116602026
000150 5b d3 7d 3d 7e 43 0f bd 5f fa 5d 3c 84 fb 24 3c
       0.061969142 -0.034976475 0.013548463 0.010069732
000160 5f f7 3c bd c3 51 18 be 58 c0 23 bc 50 e6 53 bd
       -0.04613435 -0.1487494 -0.009994589 -0.051733315
000170 5f d7 cb 3d 74 b5 d5 bd 6d fe 09 3e bc f4 d1 bd
       0.09953188 -0.10435 0.13475962 -0.102517575
000180 06 9e c4 3d b8 e8 e6 3d 89 29 13 3e 4f f6 e8 3d
       0.09600453 0.11274856 0.14371313 0.11375105
000190 ee b6 d8 bd 8e 51 3a 3e 96 0f a7 3d 40 f9 10 3e
       -0.10581766 0.18195173 0.0815727 0.14157581
0001a0 8f e3 3f be 8b 2d 0e 3e 1a 4f 3a 3d dd 40 16 3e
       -0.1873915 0.13884561 0.045485593 0.14673181
0001b0 df 12 50 be 4c 5e ef bd a0 a5 c0 3b 5d 2c e7 3b
       -0.20319699 -0.116879076 0.005879119 0.007054849
0001c0 ed 65 8b be 09 94 0c 3e 25 ee 9f ba d1 44 ab bd
       -0.272262 0.13728346 -0.001220171 -0.08362735
0001d0 9c c2 05 3e 56 a0 7b 3d b2 c1 3b 3e eb c1 58 be
       0.13062519 0.061432205 0.18335608 -0.21167724
0001e0 93 28 49 bd 02 de 88 3d 75 9d ec 3d de 7a e2 bd
       -0.04911096 0.0668297 0.1155347 -0.11058591
0001f0 21 3f 24 3e 8d 72 04 3e 38 d8 b8 3c 42 42 35 3e
       0.16039707 0.12934323 0.022564039 0.17701057
000200 9f 6a ae bd d6 c1 2b 3e 6d 43 bf bc 46 0b ad be
       -0.0851643 0.16773161 -0.02334758 -0.33797663
000210 bc d6 f5 3c 3a b2 48 be e8 a4 bd 3d 48 4e 56 3b
       0.03000962 -0.19599238 0.09259969 0.0032700468
000220 69 bc f7 bc b8 fe c8 bc 82 4e 5e bd ad 50 c5 bd
       -0.030241208 -0.024535522 -0.05427409 -0.09634528
000230 d0 11 30 3e a5 a8 48 be 63 13 11 be c7 a1 19 3d
       0.17194295 -0.19595583 -0.14167552 0.0375078
000240 a9 66 ff bd 52 2f 23 3e 4a 1b b1 3d 4d 04 02 be
       -0.12470753 0.1593602 0.08647783 -0.12696953
000250 20 fb 2b bd d8 f0 f1 3d 19 73 14 be 74 1c 2b 3e
       -0.04198754 0.118135154 -0.14497031 0.16710073
000260 25 be 8a 3b 5a 4f e8 bd f4 f4 f1 3d e3 33 7a 3b
       0.004234093 -0.1134326 0.11814299 0.00381779
000270 57 8c 0c 3e 88 6d ff bd 0c b4 b0 bd bf d7 0b 3d
       0.1372541 -0.12472063 -0.08628091 0.0341413
000280 84 3c af 3c d6 9a 00 bd 70 76 00 be 23 62 f6 3d
       0.02139116 -0.031397663 -0.1254518 0.12030437
000290 42 33 9c bd 2b 45 bd 3d 8e 18 40 3e 7c 78 a7 3d
       -0.07626964 0.09241708 0.18759367 0.081772774
0002a0 5e ac 8c 3d 01 f9 28 be e8 63 86 be fe ce 90 bd
       0.06868814 -0.16501237 -0.26248097 -0.070707306
0002b0 c9 74 4b be b6 75 4f be 3c 6e cd bd 68 d1 25 bd
       -0.19868769 -0.20259747 -0.10030791 -0.04048291
0002c0 a4 67 ea 3d 16 8d 6f 3c d3 42 93 bd 43 69 50 bd
       0.11445549 0.01462104 -0.0719048 -0.050881635
0002d0 0e d0 3c 3d 01 54 81 3d 6e ea 31 3e 75 b7 07 be
       0.046096854 0.063148506 0.17374584 -0.13253577
0002e0 96 17 09 bd e7 8d 1e 3e b1 c7 07 bc ac c0 f9 3d
       -0.03346976 0.15483819 -0.008287356 0.12194952
0002f0 af 37 31 bd 9a 77 01 3e 00 48 6f bd 65 92 30 3c
       -0.043265995 0.1264328 -0.058418274 0.010777091
000300 ce ee ed bc 8d 8d 45 be 3d 4f c6 bd fd af 9d 3d
       -0.029044535 -0.19292279 -0.09683082 0.07699583
000310 36 ef ba bc 10 ce f1 3d 5d 71 4a be e8 dd 2e 3e
       -0.022819143 0.118068814 -0.19769807 0.17076838
000320 b6 95 09 be 74 90 a3 3d 2e 28 40 3e d4 f7 36 3e
       -0.13436016 0.079865366 0.18765327 0.17867976
000330 03 61 bc bd 54 9b ed 3d 5b b6 8a 3d cb 32 39 be
       -0.09198191 0.11601892 0.06773063 -0.18085782
000340 54 2e 94 be 59 5e 28 be cb 11 61 3e e5 e1 3d be
       -0.28941596 -0.16442241 0.21979444 -0.18543203
000350 76 c4 bc bd 5c e4 5f 3e aa c4 35 3e 68 97 f8 bd
       -0.092171595 0.21864456 0.17750803 -0.121382535
000360 f8 9d 93 3d a4 b8 68 3d 2a d0 be 3e f5 23 2c be
       0.072078645 0.056816712 0.37268192 -0.16810592
000370 ee fb 86 3d 6f 91 46 3e cf e6 39 3e ce 8e 31 3e
       0.065910205 0.19391416 0.18154453 0.17339632
000380 e6 a7 63 3c 2c ce 71 3e 2c 00 07 3e 19 01 e5 bd
       0.013895011 0.23613805 0.1318366 -0.1118185
000390 f0 fe 91 bc ac 34 9f 3d 91 d3 4b be b9 d5 6f 3e
       -0.017821759 0.07773718 -0.19904925 0.23421372
0003a0 2e f1 cb bd 98 62 aa bc 94 09 d9 bd d4 cd 0f be
       -0.09958111 -0.020798966 -0.1059753 -0.14043361
0003b0 0d c7 53 be 3f 64 de bc 5e 6b 47 3d c4 8e fa 3d
       -0.206814 -0.02714741 0.048686378 0.12234262
0003c0 e4 0c 4f be 69 f6 34 3e 76 34 4d be 1c 4d 1a 3e
       -0.20219761 0.17672123 -0.20039544 0.15068477
0003d0 9c 1b b6 bd c5 eb 12 3e 7e 74 2e be d4 87 17 bd
       -0.08891985 0.14347751 -0.17036626 -0.03699477
0003e0 77 e3 59 3e a6 09 b8 bd b9 57 ff 3d 16 d6 76 be
       0.21278177 -0.08986215 0.12467904 -0.24105105
0003f0 68 d8 3c be 5b 33 f7 3d 04 9c 66 3e 6e 54 1d 3e
       -0.18441927 0.12070342 0.22520453 0.15364239

sequential/dense_2/MatMul f4 [8, 32]
000000 f4 5d 89 be b9 73 e4 be b2 c0 48 be 9c 8a 17 3e
       -0.26829493 -0.4461954 -0.19604757 0.14798969
000010 30 2c a4 3d 84 0a 20 be f7 c0 56 3e ae 81 d3 be
       0.080162406 -0.15629011 0.20972048 -0.41309875
000020 41 ab b2 bc a1 c2 a0 be 2b 31 7c bd ab c7 c5 3d
       -0.021810176 -0.3139849 -0.061570328 0.09657224
000030 fa 5f be be 21 bc 8e be af 27 2c be 95 e7 ec be
       -0.371826 -0.27877906 -0.16812013 -0.46270433
000040 60 04 85 3c 66 9b d8 3e 5d ff ae be 63 f0 ca be
       0.016237438 0.4230606 -0.34179202 -0.39636526
000050 fa 3f 91 be 76 ed 76 3d 81 fa cf bd 49 12 13 3e
       -0.28369123 0.060285054 -0.10155202 0.14362444
000060 6e f6 e1 be 42 1e 8d be fe 3c b4 be 5c a4 2a 3e
       -0.44133323 -0.27562147 -0.35202783 0.1666426
000070 df 8f e1 be 46 7d d9 be 46 59 de be de a4 95 bc
       -0.44055077 -0.4247839 -0.43427485 -0.018267091
000080 49 3d 87 3d 8b f8 01 3f f9 dc d1 3a fd ed ea bd
       0.06603486 0.5076987 0.001601129 -0.11471174
000090 66 4e a4 be c3 11 cf 3d 43 1b c4 be 8e 8c f1 3e
       -0.32091063 0.1011081 -0.3830205 0.47177547
0000a0 a6 27 05 bf 50 f7 a1 3e 93 73 ba be 67 70 c5 3e
       -0.52013624 0.31633997 -0.364163 0.3856232
0000b0 9f 0a c5 3e b3 22 8d 3e a1 56 b2 3d 00 d3 88 3e
       0.38484666 0.27565536 0.087079294 0.2672348
0000c0 b5 f2 6e bb 9e 97 15 bf 24 12 56 bb 01 4c c6 bd
       -0.0036460583 -0.58434474 -0.0032664621 -0.09682465
0000d0 b4 74 ed 3e 16 a2 25 be b9 59 d2 bd 3d cb 8f be
       0.463781 -0.16175112 -0.102710195 -0.28084746
0000e0 fa 91 8a bd f1 82 4b 3e 1d f6 ed 3e 84 bf 39 3e
       -0.06766124 0.19874169 0.46476832 0.18139464
0000f0 f6 e9 be 3d 85 0a d6 bd 95 75 85 3d 65 7e fc 3e
       0.09321968 -0.10451225 0.065165676 0.4931518
000100 c2 e9 52 3e 24 d0 11 be 8b 8d bc 3c a8 87 f2 be
       0.20596984 -0.14239556 0.023016712 -0.47369123
000110 eb 10 89 be ad d3 89 3e 05 97 59 3d 28 07 86 bd
       -0.2677072 0.26919308 0.05312254 -0.06544334
000120 99 e8 2d be 6a 3a 91 3d 51 67 5f be ad 3b 86 be
       -0.1698326 0.0709122 -0.21816756 -0.26217404
000130 4f 90 e4 3e 14 d6 9c 3d ce 68 83 3e 74 35 12 3d
       0.4464135 0.0765802 0.25665897 0.035695508
000140 19 0c 38 be 2b 44 f0 be 5d c3 da 3e 07 fe 77 3d
       -0.17973365 -0.46927008 0.42727175 0.060544994
000150 9f ce 73 bc a4 64 8d be ab 26 ca be c0 e1 c8 be
       -0.014880805 -0.27615845 -0.39482626 -0.39234734
000160 34 f5 30 3e 47 0d a3 be de ec fe 3e a6 96 79 be
       0.17281038 -0.31846067 0.4979009 -0.24373874
000170 5a 8f a5 3e 8b 1b d3 3d c6 4e 03 3f e7 d2 e0 3e
       0.3233593 0.10307988 0.51292074 0.43910906
000180 8d 2d 7a 3e a8 da f1 be 8b a1 09 be 83 39 cf 38
       0.24431439 -0.47237134 -0.1344053 9.8812416e-05
000190 3a e6 ce 3e 9a aa 82 be 26 e7 a7 be fa 90 f2 be
       0.40410024 -0.25520784 -0.3279354 -0.47376233
0001a0 4f 91 16 3e d8 bd d5 be 58 ac c2 3e 49 43 9c bd
       0.14703868 -0.41746402 0.38022113 -0.07630021
0001b0 a2 33 4f 3d 82 54 aa bd ff ac e1 be 3a 4d b9 be
       0.05058635 -0.083169 -0.44077298 -0.36191732
0001c0 38 e6 b6 3e c3 bb 86 bd 44 8c c3 be 28 65 ec be
       0.35722518 -0.065787815 -0.38192952 -0.46170926
0001d0 46 90 03 bf 92 28 da 3e a5 02 56 3e 22 73 60 be
       -0.5139202 0.42609078 0.20899446 -0.2191892
0001e0 f7 48 93 be 83 21 41 3d 0e 78 e1 be db db 0f bd
       -0.28766605 0.0471511 -0.44036907 -0.03512178
0001f0 6b 62 c8 3d 2b d4 5e be f5 b5 e3 be c8 65 1a be
       0.09784397 -0.21760623 -0.4447476 -0.15077889
000200 1d e3 2f be 90 f5 3f 3e 06 0e d9 3e be 14 c4 be
       -0.1717648 0.18746018 0.42393512 -0.38297075
000210 5e bc c8 be 40 1d 8c 3c 01 45 b6 be 74 e6 e6 3d
       -0.39206213 0.017103791 -0.3559952 0.11274424
000220 8e 66 90 bd fc a0 a5 3e 0b 68 0b bf d1 cc 96 3d
       -0.07050811 0.32349384 -0.5445563 0.073632844
000230 54 70 2d be f6 d0 71 be a7 ac e2 3e 1d f2 f6 3e
       -0.16937381 -0.23614869 0.44272348 0.48231593
000240 e2 97 47 bd f5 a3 76 3d 8b 7d c9 3e 78 87 91 3e
       -0.04872883 0.060214955 0.39353594 0.28423667
000250 69 56 43 3d 11 d0 89 be 15 e3 80 be d3 9b 0d bf
       0.04768983 -0.26916555 -0.2517325 -0.55315894
000260 3d a6 c6 3e eb c0 e7 be b8 85 ba 3e 78 65 19 3e
       0.38798705 -0.45264372 0.36430144 0.14980114
000270 67 b1 00 3e 48 68 c9 3d ea 03 58 bd 16 32 03 3f
       0.12567674 0.09834343 -0.052738108 0.512483
000280 22 a4 4b be 72 8b 58 3d b8 fb a3 bc c0 9b ee bd
       -0.1988683 0.05286736 -0.02001749 -0.11650801
000290 e1 f9 c8 be 8a 8c de 3e d0 4f 8c 3d b2 3f 12 3d
       -0.39253142 0.43466598 0.068511605 0.035705276
0002a0 a2 8c 20 bf a4 88 fd bc 90 15 c5 be 6c 1c 9c 3e
       -0.6271459 -0.030948944 -0.38493013 0.30490434
0002b0 d6 53 1f 3f a3 07 b9 3e 34 c1 c3 3e 19 84 70 3e
       0.622373 0.3613864 0.3823334 0.23487891
0002c0 51 12 81 3d 77 8a 78 be af a9 20 3e 61 71 f2 3e
       0.06302322 -0.2427157 0.15689729 0.47352126
0002d0 c5 18 0c 3f a0 5e d2 bd 92 e4 e4 be ca d5 08 bf
       0.54725295 -0.102719545 -0.44705635 -0.53451216
0002e0 43 51 c5 3e bf 06 0e be 12 df 1f 3f 08 25 94 be
       0.3853856 -0.13869761 0.62449753 -0.28934503
0002f0 55 cd c9 3e 05 a4 0c 3f b8 ea 1b 3f 59 09 51 bc
       0.39414468 0.54937774 0.6090503 -0.012758576
000300 51 4f 3f 3e 5e 18 74 3e bf ca 1b be 4d 21 c2 be
       0.186826 0.2383742 -0.1521406 -0.3791603
000310 a4 36 e0 be b2 ff 7b bd 42 98 39 3e f2 82 91 3e
       -0.43791687 -0.061523147 0.18124488 0.28420216
000320 d0 42 c2 be 74 16 12 3e 11 4e 36 3e 9a ee 8e 3e
       -0.379416 0.14266378 0.17803217 0.27916414
000330 d7 ec e5 ba c9 d5 55 3e 32 62 11 3f 7f cd 54 3e
       -0.0017541897 0.20882334 0.5679046 0.20781516
000340 d2 67 bf be b5 77 62 be ee b5 d1 3e 7f 84 e5 3e
       -0.37383896 -0.22115977 0.40959114 0.4482765
000350 3c 00 c7 3e 25 c2 21 3e 74 d8 87 bd 1b 99 b5 be
       0.38867366 0.15796717 -0.06633082 -0.35468373
000360 3b 49 d3 3e 55 aa 9e be 52 7d 2c be 13 8d 89 be
       0.41266808 -0.30989328 -0.16844681 -0.26865444
000370 f9 c6 17 bd 0e 07 d9 3e 8d d6 a7 3d cc 56 84 3e
       -0.03705499 0.42388195 0.08195219 0.2584747
000380 11 21 b2 bd ff 27 99 3e 74 74 87 be 61 bc 05 bf
       -0.08697713 0.29913327 -0.26456034 -0.5224057
000390 74 62 ca be 5e 8c aa 3d d0 d5 9c be 91 86 e3 3e
       -0.3952824 0.08327554 -0.30631876 0.44438604
0003a0 1d fc 0c bf f2 aa 34 be 2a 6e d4 be f3 5d 1f 3e
       -0.55072194 -0.17643335 -0.41490299 0.15563183
0003b0 3e fe a3 3e 8e 46 a8 3e 51 92 b3 3e 42 e1 b8 bd
       0.3202991 0.3286633 0.35072568 -0.090273395
0003c0 a5 d1 52 be 35 de 89 be a2 c5 7c 3e 02 e3 a2 3e
       -0.20587786 -0.26927343 0.24684766 0.31813818
0003d0 a6 0f ef 3e d2 91 65 3e fd 4d f6 be 51 6a 1d 3e
       0.46691626 0.22418907 -0.48106375 0.15372588
0003e0 1c 2a 68 3e cf 66 f2 bd e8 12 46 3d 1e 8a 48 3e
       0.22672313 -0.118360154 0.048357874 0.19583938
0003f0 dc c7 00 3d 6d 92 a6 3d 55 d4 02 3f da 10 b0 3e
       0.0314406 0.08133397 0.5110524 0.34387857

sequential/dense_3/MatMul f4 [1, 8]
000000 b2 01 9a 3f 15 93 3a bf 99 95 9e bf 83 41 99 3f
       1.2031767 -0.7288068 -1.2389404 1.1973118
000010 cf e3 57 bf b8 51 02 bf d1 f6 59 bf bd 07 4c bf
       -0.84331983 -0.5090594 -0.85142237 -0.7969931
